app/api/v1/features/artifacts/phone_cnn_v2_scripted.pt (torch, 636482 bytes, 12 tensors)

weight f4 [34, 48]
0	0x00000000	0.0
1	0x00000000	0.0
2	0x00000000	0.0
3	0x00000000	0.0
4	0x00000000	0.0
5	0x00000000	0.0
6	0x00000000	0.0
7	0x00000000	0.0
8	0x00000000	0.0
9	0x00000000	0.0
10	0x00000000	0.0
11	0x00000000	0.0
12	0x00000000	0.0
13	0x00000000	0.0
14	0x00000000	0.0
15	0x00000000	0.0
16	0x00000000	0.0
17	0x00000000	0.0
18	0x00000000	0.0
19	0x00000000	0.0
20	0x00000000	0.0
21	0x00000000	0.0
22	0x00000000	0.0
23	0x00000000	0.0
24	0x00000000	0.0
25	0x00000000	0.0
26	0x00000000	0.0
27	0x00000000	0.0
28	0x00000000	0.0
29	0x00000000	0.0
30	0x00000000	0.0
31	0x00000000	0.0
32	0x00000000	0.0
33	0x00000000	0.0
34	0x00000000	0.0
35	0x00000000	0.0
36	0x00000000	0.0
37	0x00000000	0.0
38	0x00000000	0.0
39	0x00000000	0.0
40	0x00000000	0.0
41	0x00000000	0.0
42	0x00000000	0.0
43	0x00000000	0.0
44	0x00000000	0.0
45	0x00000000	0.0
46	0x00000000	0.0
47	0x00000000	0.0
48	0xbf6ad9cd	-0.9173859
49	0xbf412ffc	-0.75463843
50	0x3d88d2ab	0.06680807
51	0x3f133e49	0.57516915
52	0xbf182aa2	-0.5944005
53	0x3f9a83a4	1.2071424
54	0xbf65701e	-0.896242
55	0xbf3d5600	-0.7395935
56	0xbfbdff37	-1.484351
57	0x3caefab4	0.021359779
58	0xbc97e4f3	-0.018541789
59	0x3f46c793	0.77648276
60	0xbe3d5f26	-0.18493327
61	0x3ff80ffb	1.9379877
62	0xbf9e91a4	-1.2388196
63	0x3fbd907f	1.4809722
64	0x3fbfc259	1.4981185
65	0x3f6cd19b	0.9250733
66	0x40112f77	2.268522
67	0x3f1bc18b	0.608422
68	0x3ec0d683	0.3766366
69	0xbe859550	-0.2609048
70	0xbf92f107	-1.1479806
71	0x3fabfb76	1.3436115
72	0xbdc4bf42	-0.09606792
73	0x3f0e6f93	0.55639
74	0x3d4d4f3f	0.050124403
75	0x3f043332	0.5164062
76	0x3f244598	0.6416869
77	0xbf36baf2	-0.71379006
78	0xc0152323	-2.3302696
79	0xbf46976d	-0.7757481
80	0xbd1d688b	-0.038429778
81	0xbebea294	-0.37233412
82	0xbfb632a3	-1.4234203
83	0xbf2ba83c	-0.6705358
84	0x3f203a61	0.6258908
85	0x3f1fbec2	0.6240045
86	0x3f9a43ad	1.2051903
87	0xbca32ac1	-0.019917848
88	0x3f3d8b00	0.7404022
89	0xbf03ed41	-0.51533896
90	0xbf939030	-1.1528378
91	0x3f15a829	0.5845972
92	0xbfe48b84	-1.7855077
93	0xbf6530e3	-0.8952772
94	0x3fb7b7cb	1.4352964
95	0x3f02a2f8	0.5102992
96	0xc024a88e	-2.5727878
97	0x3f07c418	0.5303359
98	0x3f56f887	0.8397297
99	0x3d8197a6	0.06327753
100	0x3f2c592d	0.6732357
101	0x3f0a113a	0.53932536
102	0x3f895a8d	1.0730759
103	0xbece933a	-0.403467
104	0xbde779f1	-0.11302555
105	0x3f434def	0.7629079
106	0x3eecd473	0.46255836
107	0x3e288534	0.16457063
108	0x3e9a5093	0.30139598
109	0x3f9d4518	1.2286711
110	0xbbe1a30c	-0.006885892
111	0xbeaa8415	-0.33303896
112	0xbfbc22c3	-1.4698108
113	0xbe276ae0	-0.16349363
114	0xbf345172	-0.70436776
115	0x3f011101	0.5041657
116	0x3f4baea9	0.79563385
117	0x3e2e0630	0.16994548
118	0xbecf822f	-0.4052901
119	0x3f0a11f4	0.53933644
120	0x3cc21a14	0.023694076
121	0x3e6b25dd	0.22963662
122	0x3e4b8017	0.19873081
123	0x3f425213	0.75906485
124	0x3f912b8f	1.1341418
125	0x3eb0b143	0.3451024
126	0x3f416d6a	0.7555758
127	0x3f02b41e	0.51056087
128	0x40067541	2.1009066
129	0x3f8a8517	1.0821866
130	0xbfb939fc	-1.447082
131	0xbf8b15cd	-1.0866028
132	0xbdb0221b	-0.08600255
133	0x3fe30f65	1.7739073
134	0x3f1578e8	0.58387613
135	0x3f1a3b87	0.6024708
136	0x3f97d747	1.1862572
137	0x3d2fc1bb	0.042909365
138	0xbfee0f03	-1.8598331
139	0x3f6cf99f	0.9256839
140	0xbec03c63	-0.3754607
141	0x3f85f1a8	1.0464373
142	0xbf3a71e9	-0.72830063
143	0x3f29e9cd	0.66372377
144	0xbf62ee68	-0.8864503
145	0x3f78b30d	0.9714821
146	0x3fcc33a9	1.5953265
147	0x3fb79aff	1.4344176
148	0x3e8a6534	0.27030337
149	0xbe6e8b2f	-0.23295282
150	0xbf3ccde0	-0.7375164
151	0x3e1e4bfa	0.1545867
152	0x3ed61d9a	0.4181946
153	0x3f765d5f	0.96236223
154	0xbecf317b	-0.40467438
155	0x3fcb2200	1.5869751
156	0xc01f51c4	-2.4893656
157	0xbed7f822	-0.42181498
158	0xbf954395	-1.1661249
159	0x3f416b5b	0.75554436
160	0xbff510f1	-1.9145795
161	0x3e533451	0.20625426
162	0xbc47ffcb	-0.012206982
163	0xbec1a0aa	-0.3781789
164	0x3e7d7ccb	0.24754636
165	0xbf3f6350	-0.74760914
166	0x3e2ecb1c	0.17069668
167	0xbf891a99	-1.0711242
168	0xbfcf83ef	-1.6212138
169	0x3faabeb8	1.3339453
170	0x3fa557f8	1.2917471
171	0x3db9e6df	0.09077238
172	0xbfc62b77	-1.5482014
173	0x3f42bc8f	0.7606897
174	0x3f445e98	0.7670684
175	0x4001adb3	2.0262268
176	0x3cb00d26	0.021490645
177	0x3e5aaa5f	0.21354054
178	0xbf4866fe	-0.78282154
179	0xbe35cb5a	-0.17753354
180	0xbf62b302	-0.88554394
181	0xbfc5f0c1	-1.5464097
182	0xbf9615f5	-1.1725451
183	0xbf010346	-0.5039562
184	0xbf02f48e	-0.5115441
185	0xbfb9efb6	-1.4526279
186	0xbff01926	-1.8757675
187	0x3d98d4d4	0.07462469
188	0x3f826ea0	1.019001
189	0xbf09931e	-0.5374011
190	0x3f30653f	0.6890449
191	0x3f2bae2e	0.6706265
192	0x3ff00514	1.875155
193	0xbf678e6c	-0.90451694
194	0x3f746b6e	0.95476425
195	0xbe8219a3	-0.25410184
196	0xbf966c8b	-1.1751875
197	0x3ea341c6	0.3188612
198	0x3ed899a8	0.4230473
199	0x3fb88e7c	1.4418483
200	0x3f062814	0.52404904
201	0x40037538	2.0540295
202	0xbf025ed4	-0.50925946
203	0xbf6614ad	-0.898753
204	0x3e30cb6e	0.17265102
205	0x3f83a888	1.0285807
206	0x3fa5a025	1.2939497
207	0x3eea6f15	0.45787874
208	0xbf525e20	-0.82174873
209	0xbf8948d1	-1.0725347
210	0xbf0979cf	-0.5370149
211	0xbf2135c0	-0.6297264
212	0x3e0f45a2	0.13991407
213	0x3ee0d342	0.43911177
214	0xbe403b0e	-0.18772528
215	0xc0137cac	-2.3044844
216	0xbeb4e5f3	-0.35331687
217	0x3f87081b	1.0549349
218	0xbfdbb01e	-1.7163122
219	0x3fc39b2e	1.5281732
220	0x3e9824d6	0.29715604
221	0xbf045fb9	-0.5170856
222	0x3f70b137	0.9402041
223	0x3fe4edd7	1.7885083
224	0x3c125380	0.008931041
225	0x3fd672b0	1.675375
226	0x3e174eab	0.14776103
227	0xbf80bdc1	-1.0057908
228	0xbf048255	-0.5176137
229	0x3dd0d172	0.101961985
230	0x3ebaeb00	0.36507416
231	0x3ffa09cc	1.953424
232	0xbdaa6627	-0.08320265
233	0xbf6c9166	-0.9240936
234	0xc0037ea2	-2.054604
235	0xbf8b7e8f	-1.0897998
236	0x3bfecc16	0.007775794
237	0x3db7e04c	0.08978328
238	0x3e3ddb38	0.18540657
239	0x3ed56201	0.41676334
240	0xbf62b298	-0.8855376
241	0x3e9c63df	0.30544946
242	0xbefa74d9	-0.48917273
243	0x3ef175e5	0.4716026
244	0xbf59b357	-0.85039276
245	0xbdcbe839	-0.09956402
246	0xbeb08063	-0.3447295
247	0x3fc85aea	1.5652745
248	0x3fa79b8a	1.3094342
249	0xbf24fffb	-0.64453095
250	0x3f66d779	0.90172535
251	0x3f0b5980	0.5443344
252	0x3f0a1604	0.53939843
253	0x3f02bff1	0.5107413
254	0x3f01e6cd	0.507428
255	0x3e6107e2	0.21975663

weight f4 [128, 48, 2]
0	0xbcb01871	-0.02149603
1	0x3bf630af	0.0075131278
2	0xbdd3b34e	-0.10336934
3	0xbdded124	-0.10879734
4	0xbddb9ccb	-0.10723265
5	0xbb27bc87	-0.0025594549
6	0x3db35c53	0.08757844
7	0xbcc47ac7	-0.023984326
8	0xbd22f373	-0.039782953
9	0xbb87d598	-0.0041453354
10	0xbd954240	-0.07288027
11	0x3dbcdba6	0.09221582
12	0xbd3cd8f0	-0.046105325
13	0xbc1748b4	-0.009233642
14	0x3d9cdf08	0.07659727
15	0xbd7dbf66	-0.06195011
16	0xbca37f47	-0.019958152
17	0xbd903090	-0.070405126
18	0xbd7a80a4	-0.061157838
19	0xbcff99e9	-0.03120132
20	0x3d719a29	0.05898491
21	0x3bf78527	0.007553715
22	0x3d482d8b	0.04887156
23	0xbdacb272	-0.08432473
24	0x3dcfd44d	0.10147915
25	0xbce95d78	-0.028486952
26	0x3dd3cfab	0.10342344
27	0xbd44873c	-0.047980532
28	0x3b37e07e	0.0028057392
29	0x3c1291fd	0.008945939
30	0x3e2374a6	0.15962467
31	0x3d88c646	0.06678443
32	0xbd1ba15c	-0.03799568
33	0x3d48d9cc	0.049035832
34	0xbd8a5dbc	-0.0675616
35	0x3d81066e	0.063000545
36	0x3cd8c58f	0.02646139
37	0xbc4fec81	-0.012690664
38	0xbda68b29	-0.081320114
39	0xbbc5ca2c	-0.0060360637
40	0xbdbd5d1a	-0.09246273
41	0x3da9e47c	0.08295533
42	0x3dc733af	0.09726655
43	0x3e18ef78	0.149351
44	0x3c4fe793	0.012689489
45	0xbdda2646	-0.10651831
46	0x3d9f9dbc	0.07793757
47	0xbd950080	-0.07275486
48	0xbd3a28f7	-0.045449223
49	0x3c6cd5d4	0.0144552775
50	0x3d7454cd	0.059651185
51	0x3da3e363	0.08002355
52	0x3d8fec03	0.070274375
53	0x3d36ecd4	0.04465945
54	0xbdac75e4	-0.08420923
55	0xbd806bbe	-0.0627055
56	0xbdb1515f	-0.086580984
57	0x3ca050cb	0.019569775
58	0xbe0388e2	-0.12845185
59	0xbd9fd2d2	-0.07803883
60	0x3c05991e	0.008154182
61	0x3df6fd2f	0.1206001
62	0xbe2f2be0	-0.1710658
63	0xbde47d01	-0.11156655
64	0xbd0ad2c1	-0.033892397
65	0x3d457382	0.04820586
66	0xbbb295a7	-0.005449969
67	0xbcfc56a6	-0.030803036
68	0xbde0fd8f	-0.109858625
69	0x3dab2b02	0.083578125
70	0x3ded37ea	0.115829304
71	0xbd97294f	-0.07380926
72	0x3dc614c0	0.096719265
73	0x3d088a32	0.03333492
74	0x3cb2e077	0.021835549
75	0x3bea03e6	0.007141578
76	0x3d83a913	0.06428733
77	0x3e3852cd	0.18000336
78	0x3d6fabec	0.058513567
79	0x3e18707d	0.14886661
80	0x3c013284	0.007885579
81	0x3dd4b7c9	0.10386617
82	0x3db9b0d8	0.090669334
83	0xbd5c2573	-0.05374665
84	0x3dfb088a	0.12257488
85	0xbd3d8a82	-0.04627467
86	0x3df4245e	0.11920999
87	0xbd38474f	-0.04498988
88	0xbd051fc7	-0.03250101
89	0x3d4486c2	0.047980078
90	0xbdf25370	-0.11832321
91	0xbd9d236d	-0.076727726
92	0x3d075a69	0.033045206
93	0x3db6976c	0.089156
94	0x3d9287f7	0.071548395
95	0xbd9555c7	-0.07291751
96	0x3cfb0976	0.03064416
97	0xbd67ce23	-0.05659307
98	0xbda2c156	-0.07947032
99	0x3de2d37e	0.11075495
100	0x3d92af1c	0.07162306
101	0xbc39b213	-0.01133396
102	0x3cb40b85	0.02197815
103	0xbcbd7c0f	-0.023130445
104	0x3cfa0041	0.0305177
105	0xbce272df	-0.027642665
106	0xbd8e7405	-0.06955723
107	0x3d2d771e	0.042349927
108	0x3cb686e5	0.02228112
109	0x3d96264d	0.07331524
110	0xbd86c33f	-0.06580209
111	0x3c956f67	0.018241597
112	0x3da58c42	0.08083393
113	0x3d9bf379	0.07614798
114	0x3d55c7d0	0.05219251
115	0x3e2e52dc	0.17023796
116	0x3c9e10cd	0.01929512
117	0x3da64452	0.081185
118	0x3dd47aba	0.10374971
119	0x3d0fd161	0.03511179
120	0xbd285ad3	-0.04110224
121	0x3e16aa01	0.14713289
122	0x3ce1e4e9	0.027574973
123	0xbcc3803c	-0.023864858
124	0x3de6c8b2	0.11268748
125	0x3bb6d58a	0.005579655
126	0x3d1809f1	0.037118856
127	0x3d528663	0.051397692
128	0xbd9e200c	-0.07720956
129	0xbd787f61	-0.060668353
130	0xbd94b019	-0.072601505
131	0xbcba8725	-0.02276952
132	0xbda2993e	-0.07939385
133	0xbd3742f3	-0.044741582
134	0x3da96cb7	0.08272689
135	0x3dd18685	0.10230736
136	0x3d7dfea2	0.062010415
137	0x3d236bb7	0.039897647
138	0x3d6006b5	0.054693896
139	0xba5838d3	-0.00082482136
140	0xbd7da32e	-0.0619232
141	0x3a6c64ea	0.0009017723
142	0x3da6311b	0.08114835
143	0x3ca02bb0	0.019552082
144	0xbc1d130d	-0.009587062
145	0xbb845b47	-0.0040392014
146	0xbd3918cb	-0.04518966
147	0xbe0738b7	-0.13205229
148	0x3d7f732d	0.0623657
149	0xbd071284	-0.032976642
150	0xbdbfa5c3	-0.093577884
151	0xbc94044c	-0.018068455
152	0xbc943df3	-0.018095946
153	0xbcc882f4	-0.024476506
154	0x3d6e44d8	0.058171123
155	0x3d4d616a	0.05014173
156	0xbda38b68	-0.07985574
157	0xbd6d0c91	-0.057873312
158	0xbd722788	-0.05911973
159	0xbe14da61	-0.1453643
160	0xbd5eb576	-0.054372273
161	0x3df6e90a	0.120561674
162	0x3bcfa957	0.0063373256
163	0x3b8a1fb7	0.0042152065
164	0xbc586ea1	-0.01320997
165	0xbd32a3dc	-0.0436133
166	0x3d3c3299	0.04594669
167	0xbc7379cf	-0.014860584
168	0xbd651618	-0.055929273
169	0xbbbf2926	-0.0058337627
170	0x3d1ff357	0.039050426
171	0x3cb80906	0.02246524
172	0xbbb45cc5	-0.005504223
173	0xbcd8408a	-0.026397962
174	0xbd3cf6c5	-0.046133775
175	0x3d93cf41	0.07217265
176	0x3db36b28	0.08760673
177	0xbce5eb4c	-0.0280663
178	0x3cdf6b43	0.027272826
179	0xbd43f75c	-0.047843322
180	0xbd229650	-0.03969413
181	0x3de081e4	0.10962275
182	0xbc8f3e60	-0.017485797
183	0x3dea1a9d	0.11430857
184	0xbc8fe4cd	-0.017565155
185	0xbd98fabe	-0.074697
186	0xbdf54b69	-0.11977274
187	0x3df704f8	0.120614946
188	0xbd8d610f	-0.06903278
189	0x3c736346	0.014855212
190	0x3d5584ca	0.05212859
191	0xbccbd9f4	-0.024884202
192	0x3cdb17b8	0.026744708
193	0xbd367356	-0.044543587
194	0x3da38e38	0.079861104
195	0xbd4c83ba	-0.04993031
196	0xbd8183a7	-0.06323939
197	0x3d758477	0.05994078
198	0x3bcd2409	0.0062603992
199	0xbc9e1b74	-0.0193002
200	0xbd16cf20	-0.036818624
201	0xbcdc1997	-0.026867671
202	0x3dacf564	0.08445242
203	0x3cf8c5ae	0.030367699
204	0x3b1d77e3	0.0024027757
205	0x3d937255	0.071995415
206	0x3d442429	0.047886048
207	0xbd140fe2	-0.03614796
208	0xbd718c1c	-0.05897151
209	0x3c8d19c2	0.017224196
210	0x3d59eecd	0.053206254
211	0xbd63b30b	-0.05559067
212	0xbdb4eba2	-0.08834006
213	0x3c747ea8	0.014922775
214	0x3d462c50	0.048382103
215	0xbc69f2ae	-0.014279051
216	0x3d1fef54	0.0390466
217	0xbd60a6ad	-0.054846454
218	0x3ccd081a	0.025028277
219	0xbd9f1aa2	-0.07768752
220	0x3d05d93e	0.03267788
221	0x3dab68a7	0.0836957
222	0x3d12086d	0.035652567
223	0x3da1f8b4	0.079087645
224	0xbd0e3ae2	-0.034724124
225	0xbd5c53fd	-0.053791035
226	0xbd5196a7	-0.051169064
227	0x3d97395a	0.07383986
228	0x3d882acf	0.0664879
229	0xbd5b2560	-0.05350244
230	0x3d4fde30	0.050749004
231	0x3d9fd479	0.07804198
232	0xbe08343f	-0.1330118
233	0x3dbccd52	0.09218849
234	0x3c9c4ba8	0.019079044
235	0x3d5ec5e2	0.054387935
236	0x3e06968e	0.1314337
237	0x3e01074c	0.1260044
238	0x3d4d5e29	0.050138626
239	0x3d06b536	0.03288766
240	0x3d1ae87e	0.037819378
241	0x3ca973bd	0.020685071
242	0xbd679b32	-0.05654449
243	0x3d306fb9	0.043075297
244	0xbd611724	-0.05495371
245	0xbadd86ab	-0.0016901096
246	0xbcb5ad85	-0.022177467
247	0xbccf249a	-0.025286008
248	0xbd7b9bed	-0.061428
249	0xbd063f90	-0.03277546
250	0x3d8dc554	0.06922403
251	0x3c6cb83d	0.014448223
252	0x3cf628c5	0.030048737
253	0xbd01f07c	-0.031723484
254	0xbd8bdf41	-0.06829692
255	0xbd8ea419	-0.06964893

bias f4 [128]
0	0xbdd18ca4	-0.10231903
1	0x3c6417c4	0.013921682
2	0xbdb6f389	-0.089331694
3	0xbdcf5cbc	-0.101251096
4	0xbd992174	-0.07477084
5	0x3dd8a90f	0.1057912
6	0xbd834f46	-0.064116046
7	0x3de8acc5	0.11361078
8	0xbca5a930	-0.020222276
9	0x3d6d580d	0.0579453
10	0xbcd0d379	-0.025491463
11	0x3dfdb4ed	0.123880245
12	0xbc2a2361	-0.010384412
13	0xbdbb67d7	-0.09150665
14	0xbb3f0765	-0.0029148695
15	0xbc3bc2cc	-0.011460017
16	0xbd6973ba	-0.05699513
17	0xbdf89079	-0.12136931
18	0xbd0cde72	-0.034391828
19	0x3bc7eac2	0.0061009834
20	0x3dba0431	0.09082831
21	0xbd801c29	-0.06255371
22	0xbda412a8	-0.08011371
23	0x3d936c94	0.07198444
24	0xbb3990ba	-0.0028315024
25	0xbc1e5ed4	-0.0096661635
26	0x3d960490	0.07325089
27	0xbd7ecbab	-0.06220595
28	0x3dfcebe4	0.1234968
29	0x3dd4f9a6	0.10399179
30	0xbc511908	-0.012762316
31	0x3d238057	0.039917316
32	0xbc201ec2	-0.009772958
33	0xbdff1d77	-0.12456792
34	0x3d0c13d7	0.03419861
35	0xbc0f9704	-0.008764032
36	0x3c7a4180	0.0152744055
37	0x3cc6a989	0.024250763
38	0x3df25250	0.11832106
39	0xbdc3d1e0	-0.09561515
40	0xbb4eaa2f	-0.0031534543
41	0xbda45694	-0.08024326
42	0xbc1e080b	-0.009645472
43	0xbcc0305a	-0.023460556
44	0xbd8bda92	-0.06828798
45	0xbd7891f5	-0.06068607
46	0x3d91683e	0.07099961
47	0xbda765f8	-0.08173746
48	0x3da1f498	0.07907981
49	0x3d5caddb	0.05387674
50	0xbbc136ae	-0.005896411
51	0x3d484b6c	0.048900053
52	0x3e0b91e0	0.13629866
53	0xbd997eae	-0.07494865
54	0x3cb378ac	0.021908127
55	0xbdd56b57	-0.10420864
56	0xbd393d38	-0.0452244
57	0xbcf7e369	-0.030259805
58	0x3df3b81a	0.11900349
59	0x3aac4ce6	0.0013145476
60	0xbd696103	-0.056977283
61	0xbd661d8c	-0.05618052
62	0xbbda0d1e	-0.0066543957
63	0xbd8faef9	-0.07015795
64	0xbd4f1951	-0.050561253
65	0xbca32625	-0.01991565
66	0xbceae36f	-0.028672902
67	0x3c1b8213	0.009491461
68	0xbc937d63	-0.018004125
69	0x3d06580c	0.03279881
70	0xbd06f3eb	-0.032947462
71	0xbd21589d	-0.03939115
72	0x3dbcaaf6	0.09212296
73	0xbc853ac2	-0.01626337
74	0xbdb9b637	-0.09067958
75	0xbb0ddaff	-0.0021645424
76	0xbd1170d9	-0.03550801
77	0xbdd3f062	-0.10348584
78	0xbdc78903	-0.0974293
79	0xbb47a0af	-0.0030460765
80	0x3d1f0e3e	0.03883194
81	0xbd87aa61	-0.06624294
82	0x3c8ec488	0.017427698
83	0xbd4bddc3	-0.049772035
84	0x3cb0465c	0.021517925
85	0xbc6e665e	-0.014550773
86	0xbbe8349f	-0.007086351
87	0x3d8e0662	0.06934811
88	0x3c66065d	0.014039603
89	0xbdca7105	-0.09884838
90	0x3c947235	0.018120864
91	0xbca89e14	-0.02058319
92	0xbd030444	-0.03198649
93	0x3d609e04	0.054838195
94	0xbdeb7c60	-0.11498332
95	0x3cddfb2f	0.027097313
96	0xbbe80fed	-0.0070819766
97	0xbda0707f	-0.07833957
98	0xbdb84659	-0.08997793
99	0xbc556328	-0.013024129
100	0xbd905af1	-0.07048596
101	0x3d0e2f32	0.034712978
102	0xbdc8119a	-0.09768982
103	0xbc3c52ed	-0.01149438
104	0xbcfcb424	-0.030847616
105	0xbd45de67	-0.048307803
106	0xbdc91080	-0.098176
107	0xbd10e822	-0.03537763
108	0xbdd36b42	-0.10323192
109	0xbc97695c	-0.018482856
110	0x3cdb20dd	0.026749069
111	0xbdc6cc3f	-0.097069256
112	0x3da8ec33	0.082481764
113	0xbdfa50ab	-0.122224174
114	0xbdcbaa67	-0.09944611
115	0xbc1f9df8	-0.0097422525
116	0xbdc1ac0e	-0.09456645
117	0x3d8867ff	0.06660461
118	0xbcd42dfd	-0.025900835
119	0xbd2aa03d	-0.04165672
120	0x3e0cfe6a	0.13768926
121	0xbd51fcc9	-0.051266465
122	0xbdaec2c8	-0.08533245
123	0xbdb4fa55	-0.088368095
124	0xb95315a7	-0.00020130594
125	0x3dc0decd	0.09417496
126	0x3e06162d	0.13094397
127	0xbd214139	-0.03936884

weight f4 [128, 48, 3]
0	0x3d105814	0.035240248
1	0x3d9e8d21	0.07741762
2	0xbd157916	-0.03649243
3	0x3a83f251	0.0010066723
4	0xbcd3d083	-0.025856262
5	0xbb212acf	-0.0024592166
6	0x3d75299f	0.059854146
7	0x3dc4e585	0.0961409
8	0xbd69e12f	-0.057099517
9	0x3ccc6a1b	0.024952939
10	0x3d947b0d	0.072500326
11	0xbc072696	-0.008248946
12	0x3d7654cd	0.060139466
13	0xbd659571	-0.05605072
14	0x3d8133b9	0.063086934
15	0xbcf5db0f	-0.030011682
16	0x3d8d7df3	0.069087885
17	0x3ca52613	0.020159757
18	0xbd15bdea	-0.03655807
19	0xbc1c7917	-0.009550354
20	0xbd808683	-0.06275656
21	0xbdac8a56	-0.08424823
22	0xbd794ca5	-0.06086411
23	0x3d08d503	0.03340627
24	0x3d817f35	0.06323091
25	0xbd42675d	-0.047461856
26	0x3da01e60	0.078182936
27	0xbd881543	-0.0664468
28	0x3d3877ab	0.045036
29	0x3d6910fa	0.056900956
30	0x3d8e3912	0.06944479
31	0xbd92d4df	-0.07169508
32	0x3dc4677a	0.09590049
33	0xbd8e0dda	-0.06936236
34	0xbdc020b3	-0.09381237
35	0xbc43966e	-0.011937721
36	0x3d20cd87	0.039258506
37	0x3d8c9dd0	0.06866038
38	0x3d14c077	0.03631636
39	0x3d17724b	0.036974233
40	0x3ca74ff9	0.020423876
41	0xbd27a08a	-0.040924586
42	0xbd5a6747	-0.05332115
43	0xbd27a365	-0.04092731
44	0x3dc409c2	0.09572174
45	0x3d765ee4	0.06014909
46	0xbd6bf1b0	-0.057603538
47	0x3c15e816	0.009149572
48	0xbb464da3	-0.0030258677
49	0x3c2cd805	0.01054955
50	0x3bb1cbcc	0.005425906
51	0xbb52a68c	-0.0032142727
52	0x3d402010	0.046905577
53	0xba8eed5b	-0.0010904478
54	0x3d8707da	0.065932944
55	0xbc66df4d	-0.014091325
56	0xbdfdf984	-0.12401107
57	0x3caccd2e	0.021093931
58	0x3d502cff	0.05082416
59	0x3d889c03	0.06670382
60	0xbc6e1bf6	-0.014533034
61	0x3b9bf0b6	0.0047589196
62	0x3c98697e	0.01860499
63	0xbcb45b84	-0.022016294
64	0x3c89c4b1	0.016817423
65	0x3cccca15	0.024998704
66	0xbc5dbf2c	-0.013534348
67	0xbc2c7165	-0.010525082
68	0xbd899dfd	-0.06719587
69	0xbd3e7aa7	-0.04650369
70	0xbd95febd	-0.07323978
71	0x3d34793c	0.04406093
72	0xbc9c7313	-0.01909784
73	0x3de73a04	0.112903625
74	0xbd3d6200	-0.04623604
75	0x3bcc5eb8	0.0062368773
76	0xbbe78898	-0.007065844
77	0x3c32c79b	0.010911847
78	0xbd9d5e02	-0.07683946
79	0xbd5583fa	-0.052127816
80	0x3d3d0622	0.046148427
81	0xbd1ac9e9	-0.037790213
82	0x3d8f32bf	0.06992101
83	0x3c6c92d3	0.0144393025
84	0x3d04ad66	0.032391928
85	0xbd49efd0	-0.04930097
86	0xbd079ffb	-0.033111554
87	0xbd94a5d4	-0.07258192
88	0x3c53b898	0.012922429
89	0x3d460e34	0.04835339
90	0x3d902c6c	0.07039723
91	0x3c9db277	0.019250138
92	0xbbc31e55	-0.0059545436
93	0xbbfb0252	-0.0076601887
94	0x3d4c6353	0.04989941
95	0x3d8072b1	0.06271876
96	0xbb364cc9	-0.0027816764
97	0xbdb8322d	-0.08993945
98	0xbd01aaa6	-0.031656884
99	0x3ce815f1	0.028330775
100	0x3dbbca63	0.091694616
101	0xbc6dd4ab	-0.014516036
102	0x3d6c607e	0.05770921
103	0x3db5fa24	0.08885601
104	0x3d922ed8	0.07137841
105	0x3d786b8a	0.060649432
106	0xbc892931	-0.016743274
107	0x3d643829	0.05571762
108	0xbce95486	-0.028482687
109	0xbd4e681c	-0.050392255
110	0xbd836aa8	-0.064168274
111	0xbd939a78	-0.07207197
112	0x3d8111bf	0.06302213
113	0x3dddd824	0.10832241
114	0x3d4a471c	0.04938422
115	0xbd8782e7	-0.066167645
116	0x3d613feb	0.054992598
117	0x3bac8e67	0.005265999
118	0x3ddb77a7	0.10716181
119	0xbd63f427	-0.055652764
120	0x3d2d1033	0.042251777
121	0xbca78962	-0.020451251
122	0x3d25bbf2	0.04046244
123	0xbd69c96e	-0.057076864
124	0xbcf1a08f	-0.029495506
125	0xbceb2f93	-0.028709209
126	0x3c6922b8	0.014229469
127	0x3bbd6282	0.0057795653
128	0xbc90eb6e	-0.017690387
129	0x3cae516c	0.02127906
130	0x3d92e756	0.0717303
131	0x3cc9e5b1	0.024645658
132	0xbc027679	-0.007962816
133	0xbc2f7770	-0.010709628
134	0x3c3956ab	0.011312167
135	0x3ae87752	0.0017735756
136	0x3b404739	0.0029339327
137	0x3d8410d3	0.064485215
138	0x3c267ca7	0.010161555
139	0xbdac9de2	-0.08428551
140	0xbcfa4e6e	-0.030554976
141	0xbd7181ac	-0.058961555
142	0x3c7ad797	0.01531019
143	0x3dd26173	0.10272493
144	0x3ce1dc91	0.027570995
145	0x3d98b6f7	0.07456773
146	0xbd4f0199	-0.050538633
147	0x3cb6e2bd	0.022324914
148	0x3d3507d7	0.04419693
149	0x3d3c4b20	0.045970082
150	0x3d52fd57	0.051511135
151	0x3d426c81	0.04746676
152	0xbcc3bad4	-0.023892798
153	0xbdc300bd	-0.09521625
154	0xbd03ab47	-0.032145765
155	0x3c1ad60a	0.009450445
156	0x3cafc6fa	0.021457184
157	0xbdbbd6d0	-0.091718316
158	0xbdcc9e51	-0.09991134
159	0x3e298337	0.1655396
160	0x3d6795f4	0.05653949
161	0xbdbc014b	-0.09179934
162	0xbcbd3c27	-0.023099972
163	0xbd0962cc	-0.033541486
164	0xbd3ba096	-0.045807444
165	0xbe0c8ee8	-0.1372639
166	0x3c938ece	0.01801243
167	0x3c3f4806	0.011674887
168	0x3c9f9082	0.019478086
169	0xbd5439cb	-0.05181293
170	0x3d3d83ae	0.046268158
171	0xbba04b7f	-0.0048918123
172	0x3cb8667b	0.022509804
173	0xbd239d63	-0.039945018
174	0xbddebbaf	-0.108756416
175	0x3d91444e	0.07093106
176	0x3d28832a	0.041140713
177	0xbe007552	-0.12544754
178	0x3d4889a8	0.048959404
179	0x3d0cc819	0.034370515
180	0x3d36527b	0.044512253
181	0x3d5d7899	0.05407009
182	0x3cb05b11	0.021527799
183	0x3da4111a	0.08011074
184	0x3c84048f	0.016115455
185	0xbb3e8adb	-0.0029074464
186	0x3e0fa2ee	0.14026996
187	0x3d651b24	0.055934086
188	0xbaf47934	-0.0018651844
189	0xbd45b221	-0.04826558
190	0xbd1b6d86	-0.037946247
191	0x3dc3fc5f	0.0956962
192	0xbd844eea	-0.06460364
193	0x3d6beea4	0.057600632
194	0xbd37236f	-0.044711526
195	0x3dc99193	0.09842219
196	0x3d14e522	0.03635133
197	0x3d9443da	0.07239504
198	0x3b60a7b7	0.0034279653
199	0xbc0d8486	-0.008637553
200	0x3c726258	0.014793955
201	0xbdee129b	-0.116246425
202	0xbd58cf97	-0.052932348
203	0xbe39ee93	-0.18157415
204	0xbdee9392	-0.116492406
205	0xbbae4030	-0.0053177103
206	0xbe04bbfa	-0.12962332
207	0x3dfe919d	0.12430117
208	0xbdb8e3f8	-0.090278566
209	0xbd0dfab7	-0.03466293
210	0x3d1b2274	0.037874654
211	0x3d206ac1	0.03916431
212	0xbca66be4	-0.020315118
213	0xbdd9866c	-0.10621342
214	0x3dce52a6	0.10074358
215	0x3d79caa5	0.060984273
216	0x3bd3243a	0.0064435275
217	0x3d9732e2	0.07382752
218	0xbd057280	-0.0325799
219	0xbcaf85ce	-0.021426108
220	0x3c23713d	0.009975729
221	0xbd091b67	-0.0334734
222	0xbe032abd	-0.12809272
223	0x3da9804f	0.08276426
224	0x3dd045f7	0.10169595
225	0xbc8eebea	-0.017446477
226	0xbc9bd9bd	-0.019024724
227	0x3dab7702	0.08372308
228	0xbc7c185d	-0.015386668
229	0xbcb0303c	-0.021507375
230	0xbc528ba0	-0.012850672
231	0xbd125fbc	-0.03573583
232	0xbd53ae4d	-0.051679898
233	0x3d9fb6b3	0.07798519
234	0x3e042b6a	0.12907186
235	0x3d411a25	0.047144074
236	0xbdb5f013	-0.08883681
237	0xbd945e5c	-0.0724456
238	0x3da4354d	0.08017979
239	0x3dba2445	0.09088949
240	0x3d7ba843	0.061439764
241	0xbc86f350	-0.016473442
242	0xbde60823	-0.11232021
243	0xbd82a7d6	-0.063796684
244	0x3ddfa3ab	0.10919889
245	0xbd1d1d5a	-0.03835807
246	0xbdb5e329	-0.08881218
247	0x3c9d65c4	0.019213565
248	0xbd5b183b	-0.053489905
249	0xbb48c4ed	-0.0030634955
250	0x3c263bbf	0.0101460805
251	0x3d34baaf	0.044123348
252	0xbcfe0ef8	-0.031012997
253	0x3dcf11ec	0.1011084
254	0x3ca1bb4c	0.01974263
255	0xbd773329	-0.060351525

bias f4 [128]
0	0xbd8bf108	-0.068330824
1	0xbd543c99	-0.051815603
2	0x3d6eed0f	0.058331545
3	0xbdb5e876	-0.08882229
4	0xbc5350b7	-0.012897662
5	0xbdc4a781	-0.09602261
6	0xbd8d8716	-0.06910531
7	0x3c94abe4	0.01814837
8	0x3b6d3275	0.0036193405
9	0xbcd7f784	-0.026363142
10	0x3da0dcd6	0.07854621
11	0x3c9831fe	0.018578526
12	0x3cc0dd41	0.023543002
13	0x3d125869	0.035728846
14	0xbd538515	-0.05164059
15	0xbce39f31	-0.02778587
16	0x3da160e2	0.07879807
17	0xbd33125a	-0.043718673
18	0xbc700c0a	-0.014651308
19	0xbdaf1194	-0.08548275
20	0x3d5f8b47	0.054576185
21	0x3967494a	0.00022057179
22	0xbd83431a	-0.06409283
23	0x3deb0859	0.114762016
24	0xbb13e622	-0.002256759
25	0xbceae754	-0.028674759
26	0xbd276fb4	-0.040878013
27	0xb9e21883	-0.00043124342
28	0xbd048bde	-0.03235995
29	0xbd7d250a	-0.0618029
30	0xbdcc19b1	-0.09965838
31	0xbc7f93ca	-0.0155992005
32	0xbc99ae40	-0.018759847
33	0xbd9408ba	-0.07228227
34	0xbccb1357	-0.024789495
35	0x3d6a0382	0.05713225
36	0xbd903fdd	-0.07043431
37	0x3d68cca2	0.056835778
38	0xbde591d9	-0.11209459
39	0xbc01006b	-0.007873635
40	0xbd5acb78	-0.0534167
41	0xbd8a81b3	-0.067630194
42	0x3ceb867c	0.02875065
43	0xbcd21917	-0.02564673
44	0xbce5db75	-0.028058747
45	0xbc020e6f	-0.007938012
46	0xbb83a264	-0.004017161
47	0x3c7014fc	0.014653441
48	0x3bf8bedb	0.007591111
49	0x3dc8e268	0.098088086
50	0xbd2b9bd1	-0.041896645
51	0xbcdad94b	-0.026714941
52	0x3d81751d	0.06321166
53	0xbb9b7272	-0.0047438676
54	0xbd0b116a	-0.033952154
55	0xbd66e290	-0.05636841
56	0x3d6fb0e5	0.05851831
57	0xbda7214c	-0.08160648
58	0xbd5ee350	-0.054416
59	0xbd00e9c4	-0.031472936
60	0xbc7d0f21	-0.015445502
61	0x3d5cc9b2	0.05390329
62	0xbd8ff75b	-0.07029601
63	0xbd5e9162	-0.054337867
64	0x3d1ed643	0.038778555
65	0x3d815f5d	0.06317017
66	0xbde8c1b3	-0.1136507
67	0x3d056786	0.03256943
68	0xbdabb1ef	-0.083835475
69	0xbdbd3436	-0.09238474
70	0x3dfc7745	0.12327436
71	0xbda5522f	-0.08072316
72	0xbdc1aa9e	-0.09456371
73	0x3dfef260	0.12448573
74	0xbd27817a	-0.040894963
75	0xbcf6ddf3	-0.03013513
76	0xbda7385e	-0.08165048
77	0xbd1629f9	-0.036661122
78	0x3d225a7d	0.039637078
79	0x3d73db96	0.059535585
80	0x3d3c70b9	0.04600594
81	0xbcb3e573	-0.021959996
82	0xbc057c84	-0.008147363
83	0xbd62ff55	-0.055419285
84	0x3cd1b418	0.02559857
85	0xbd8dd3ce	-0.06925164
86	0xbbff3584	-0.007788362
87	0xbd6676b4	-0.056265548
88	0xbd582eea	-0.052779116
89	0xbdbabb46	-0.09117751
90	0x3d045536	0.032307826
91	0x3da1200f	0.07867443
92	0xbdbcd14a	-0.09219606
93	0xbc37d1d1	-0.011219458
94	0xbd58e618	-0.05295381
95	0x3c86021a	0.016358424
96	0xbd83d8a6	-0.06437807
97	0xbda1d752	-0.07902397
98	0xbc9b6f77	-0.018974049
99	0xbc72fd6f	-0.014830931
100	0xbd900b95	-0.07033459
101	0xbde84fe6	-0.113433644
102	0xbdcc4872	-0.09974755
103	0xbd671596	-0.05641707
104	0xbdc046a9	-0.09388477
105	0xbcaf636c	-0.021409713
106	0xbd5366d3	-0.051611733
107	0xbd937c3a	-0.07201429
108	0xbd27f57e	-0.041005604
109	0xbd8b5eaa	-0.06805165
110	0xbdbbf468	-0.09177476
111	0x3d7ee65b	0.062231403
112	0xbcb8e336	-0.02256928
113	0x3ded2b30	0.11580503
114	0x3d1a8b4b	0.037730496
115	0x3d8b8409	0.06812293
116	0xbca4ca85	-0.0201161
117	0xbd1e38c5	-0.03862836
118	0x3ca31a59	0.019910024
119	0xbdad1230	-0.084507346
120	0x3c329594	0.01089992
121	0xbccccc9e	-0.024999913
122	0x3d53efd2	0.051742382
123	0xbd57b2ff	-0.05266094
124	0xbb35ec5b	-0.0027759287
125	0xbd889886	-0.066697165
126	0x3d0d51cd	0.03450184
127	0x3d5a8115	0.05334576

weight f4 [128, 48, 4]
0	0xbb92fea0	-0.00448592
1	0xbc10adf9	-0.008830541
2	0xbd9e9f7e	-0.077452645
3	0xbe3c91fc	-0.18415064
4	0xbdde4e34	-0.1085476
5	0x3db28016	0.08715837
6	0xbd59410a	-0.05304054
7	0x3d5dbbb4	0.054134086
8	0x3d5a6d9d	0.05332719
9	0xbad92150	-0.0016565714
10	0xbc805763	-0.01566667
11	0x3d71ef51	0.05906612
12	0x3e165d6f	0.1468408
13	0xbba4053b	-0.0050055063
14	0xbd4265e2	-0.047460444
15	0xbd3ce4d0	-0.04611665
16	0xbd2b56c4	-0.041830793
17	0xbcd72678	-0.02626346
18	0x3cde34a6	0.027124714
19	0x3d8680c3	0.06567528
20	0xbc4dcc37	-0.012560896
21	0x3d07ed8d	0.03318553
22	0x3d3d475d	0.046210635
23	0x3da058e8	0.078294575
24	0xbdd066bf	-0.10175847
25	0x3d61bc33	0.05511112
26	0x3d4475a7	0.047963765
27	0x3e26046c	0.16212624
28	0xbcfd3755	-0.030910173
29	0xbced4314	-0.02896265
30	0xbd9fc04a	-0.07800348
31	0xbdef2023	-0.116760515
32	0xbcb36a9d	-0.021901423
33	0x3da385eb	0.07984527
34	0xbd878f15	-0.066190876
35	0xbdff5924	-0.12468174
36	0x3d3a29fd	0.0454502
37	0x3c827564	0.015925117
38	0x3cb26d88	0.021780744
39	0x3c0e2a12	0.0086770225
40	0x3e0f8339	0.14014901
41	0x3d0fc074	0.035095647
42	0x3cc33dfa	0.023833264
43	0x3d826ef7	0.06368821
44	0x3d4cf768	0.050040632
45	0x3c682ffa	0.014171595
46	0xbccd20eb	-0.02504011
47	0xbcf9febc	-0.030516975
48	0x3ddbcaec	0.10732064
49	0xbc40d5d2	-0.011769729
50	0x3e0949e1	0.13407089
51	0x3d9caaae	0.07649742
52	0x3de7de1e	0.11321662
53	0xbd03e523	-0.032200944
54	0xbd09c5f0	-0.033636034
55	0x3d81fd5a	0.06347151
56	0xbd157a03	-0.036493313
57	0xbdd25aa2	-0.10271193
58	0x3d394eaf	0.045241054
59	0xbe042372	-0.12904146
60	0x3d90be10	0.070675015
61	0x3d0c00c7	0.03418043
62	0x3b5bc5ea	0.0033534714
63	0xbdfbfc08	-0.123039305
64	0xbd8da81f	-0.06916832
65	0x3cebf0d0	0.028801352
66	0x3d08406a	0.033264555
67	0x3d6eb55d	0.05827843
68	0xbccf6250	-0.025315434
69	0x3dbe2679	0.09284682
70	0xbdbf1a9c	-0.09331247
71	0x3df7727b	0.12082382
72	0xbd2519b1	-0.040307704
73	0x3deb0af1	0.11476696
74	0xbd1832e8	-0.037157923
75	0xbd5e0f4e	-0.054213814
76	0xbba06e28	-0.004895944
77	0x3d00f782	0.03148604
78	0x3cc58892	0.024112973
79	0x3d9de8ee	0.077104434
80	0xbc11f918	-0.008909486
81	0xbcfae48c	-0.030626558
82	0x3e2e5983	0.17026334
83	0x3d07be75	0.03314062
84	0xbd044fe2	-0.032302745
85	0x3cde7a3e	0.027157899
86	0x3b4eaefc	0.0031537404
87	0xbd06211a	-0.03274641
88	0x3cfbd551	0.030741366
89	0xbc946d12	-0.018118415
90	0xbb3431a2	-0.0027495404
91	0x3dea67ed	0.114456035
92	0x3bb40d53	0.0054947524
93	0x3d4470f1	0.04795927
94	0xbd5e8c80	-0.05433321
95	0x3de90459	0.113777824
96	0x3d8096de	0.06278776
97	0x3dfd1acd	0.123586275
98	0x3d6ec9bf	0.05829787
99	0xbc8b862e	-0.017031755
100	0x3e060adf	0.13090084
101	0x3d6aaf3e	0.05729603
102	0xbc90b8b1	-0.017666193
103	0x3dcb2356	0.09918849
104	0x3d942051	0.07232726
105	0xbd5a6316	-0.053317152
106	0xbc6aa22d	-0.014320892
107	0xbda18e26	-0.07888441
108	0x3d3256be	0.043539755
109	0xbe71b359	-0.23603572
110	0x3d4de36d	0.05026572
111	0xbdef2a88	-0.11678034
112	0xbd77ac46	-0.060467027
113	0xbd91038e	-0.07080756
114	0x3d16cbff	0.03681564
115	0x3d48f5d0	0.04906255
116	0xbdee3077	-0.11630338
117	0x3c925043	0.017860537
118	0x3c61fe9c	0.013793614
119	0x3dc5113c	0.09622428
120	0xbdc0a1f9	-0.09405894
121	0xbd6fa513	-0.058507036
122	0x3df54052	0.11975159
123	0x3d99096a	0.07472499
124	0x3cb8a239	0.022538291
125	0xbd720d4b	-0.05909471
126	0xbe179e25	-0.14806421
127	0xbd026096	-0.031830393
128	0x3db6af88	0.08920199
129	0x3d8641f8	0.06555551
130	0x3dcee0a7	0.10101443
131	0x3dcac7d4	0.099013954
132	0x3d7ab958	0.061211914
133	0xbd88e20d	-0.06683741
134	0x3c8f1fb8	0.01747118
135	0x3d55cfb6	0.05220004
136	0x3d2db495	0.042408545
137	0x3dfec11e	0.12439178
138	0xbc99e726	-0.018786978
139	0x3ce7c60c	0.028292678
140	0x3cb2f4e4	0.021845289
141	0x3dbc743f	0.0920186
142	0xbd00f2e2	-0.03148163
143	0xbd0305f6	-0.031988107
144	0xbc61fd66	-0.013793325
145	0x3cc1eedd	0.02367347
146	0xbca12264	-0.019669719
147	0xbd1f03d5	-0.038822014
148	0x3c76d6e8	0.015065886
149	0x3dd2e24a	0.102970675
150	0x3df19a7d	0.117970444
151	0x3dfefcc4	0.12450555
152	0x3dbb1cb8	0.09136337
153	0xbcb6d1d6	-0.022316854
154	0x3d199295	0.037493307
155	0x3dbb3959	0.091417976
156	0x3ddb5917	0.10710352
157	0xbd4e369e	-0.050345056
158	0xbd7fe2db	-0.062472206
159	0x3d8b9023	0.06814601
160	0x3d4de450	0.050266564
161	0xbdb00b91	-0.08595956
162	0x3da1d983	0.07902815
163	0x3d8a5116	0.06753747
164	0xbc092980	-0.008371711
165	0x3d7771f1	0.060411397
166	0xbce9fccd	-0.028562928
167	0x3d15cf06	0.036574386
168	0xbd821e98	-0.063534915
169	0xbc13c701	-0.009019614
170	0xba18625f	-0.0005812998
171	0x3d855e89	0.06512172
172	0x3cdbd1e6	0.026833486
173	0xbd3cf737	-0.0461342
174	0xbd14f21c	-0.036363706
175	0x3d75d569	0.060017977
176	0x3dbe8b9e	0.093039736
177	0x3c867498	0.016413018
178	0xbb21ce0f	-0.002468947
179	0xbd3856dd	-0.045004714
180	0x3ca14fa9	0.019691305
181	0x3d1dde44	0.038542047
182	0xbcd263b5	-0.02568231
183	0x3b0ff500	0.00219661
184	0x3e02f5c3	0.12789063
185	0xbd00aee4	-0.03141679
186	0x3acd15fe	0.0015646813
187	0xbc4f5dca	-0.012656638
188	0x3db9f85f	0.09080576
189	0xbe048f92	-0.12945393
190	0x3cd2efd1	0.025749119
191	0x3cdd22eb	0.02699419
192	0x3baf8948	0.0053569414
193	0xbd49593c	-0.049157366
194	0x3cd0d047	0.02548994
195	0x3b3b498a	0.0028577768
196	0xbde8704f	-0.11349546
197	0xbd10d71f	-0.035361405
198	0x3c1f836c	0.009735923
199	0xbd5c16d9	-0.053732727
200	0xbdd37e69	-0.10326845
201	0xbc8ae8de	-0.016956743
202	0xbd7900dd	-0.06079184
203	0xbd95beab	-0.07311758
204	0xbdbadbe3	-0.09123971
205	0xbd2b23d8	-0.04178223
206	0xbd435c11	-0.047695223
207	0xbe1b54bc	-0.15169042
208	0xbde68871	-0.11256493
209	0xbc0c4a44	-0.008562628
210	0xbbe5ccf6	-0.0070129586
211	0x3dcbba90	0.09947693
212	0x3d8bb873	0.0682229
213	0xbdbd8f83	-0.09255888
214	0x3d3f6744	0.04672934
215	0xbd7e42a9	-0.06207529
216	0xbc81928f	-0.015816955
217	0xba583351	-0.0008247393
218	0xbd377448	-0.04478863
219	0xbbd2a17a	-0.006427941
220	0xbd25c464	-0.040470496
221	0xbd8c38ca	-0.06846769
222	0xbd0a4774	-0.03375955
223	0xbd135c05	-0.03597643
224	0xbcdf06fc	-0.02722501
225	0x3db29332	0.087194815
226	0x3d5b4b8b	0.05353884
227	0x3ce6d651	0.028178366
228	0xbd3b1512	-0.04567439
229	0x3d007d48	0.031369478
230	0xbd3b2a29	-0.045694504
231	0xbd1c7b24	-0.038203374
232	0xbd9f39b3	-0.07774677
233	0x3d19c99a	0.037545778
234	0x3dfae47a	0.1225061
235	0x3d07ae3d	0.03312515
236	0x3e0a3242	0.13495734
237	0xbd3e6736	-0.04648515
238	0x3d83e8e7	0.06440907
239	0x3e106142	0.14099601
240	0xbd0275b3	-0.031850528
241	0x3c1a3916	0.009413024
242	0x3d54c98a	0.051950015
243	0x3c280654	0.010255415
244	0x3e155778	0.14584148
245	0xbcd7f51e	-0.026361998
246	0xbd3103a1	-0.04321635
247	0x3d8e1c1d	0.06938956
248	0xbd5a7902	-0.05333806
249	0x3d071694	0.032980517
250	0x3db32ed3	0.087491654
251	0xbdec24e7	-0.11530476
252	0xbc6ca005	-0.0144424485
253	0xbd4f351c	-0.05058776
254	0xbd8655ca	-0.06559332
255	0xbd6c6998	-0.05771789

bias f4 [128]
0	0x3d2dcbcf	0.042430695
1	0xbc0cde2d	-0.008597893
2	0xbc89f96a	-0.016842563
3	0xbce0e9f5	-0.02745531
4	0xbc3377b3	-0.0109538315
5	0xbbe2760f	-0.0069110463
6	0xbcadf7a1	-0.021236243
7	0xbd745a9a	-0.059656717
8	0x3dbd5d85	0.09246353
9	0xbd32b42a	-0.04362885
10	0xbcf423ad	-0.029802168
11	0x3d84448a	0.06458385
12	0xbd25eef4	-0.040511087
13	0xbd871d99	-0.06597442
14	0xbc4512d9	-0.012028419
15	0x3cc148f1	0.023594351
16	0x3dac3beb	0.08409866
17	0xbd7d9281	-0.061907295
18	0xbd7f609f	-0.062348004
19	0xbd861023	-0.065460466
20	0xbdc98c9c	-0.09841272
21	0xbd30bd56	-0.043149315
22	0xbd9486e7	-0.07252293
23	0x3bb8c873	0.00563913
24	0x3dd338c9	0.10313565
25	0xbdc53bac	-0.09630522
26	0xbd7eeadb	-0.062235694
27	0x3d658fe7	0.05604544
28	0x3daa9d6f	0.08330809
29	0x3ab6d7cf	0.0013949814
30	0xbd8ccc6e	-0.06874929
31	0xbb85e10e	-0.0040856665
32	0x3d94ff18	0.07275218
33	0x3c10bb84	0.00883377
34	0xbd9afd9a	-0.07567902
35	0x3c79fd49	0.015258142
36	0x3de83aca	0.11339338
37	0xbd19d864	-0.03755988
38	0xbda64dc4	-0.08120301
39	0x3dcee2c9	0.101018496
40	0x3d96c2ba	0.0736136
41	0xbda66df6	-0.08126442
42	0x3d89fdbe	0.067378506
43	0xbd6338c4	-0.055474058
44	0x3cf46945	0.029835353
45	0x3de81b77	0.113333635
46	0xbcfcad58	-0.030844375
47	0xbba10daf	-0.0049149613
48	0x3c2f8f06	0.010715252
49	0xbd6254c9	-0.05525664
50	0xbdaa8900	-0.08326912
51	0x3c126d45	0.008937185
52	0x3dab72d9	0.08371515
53	0xbc3ff732	-0.011716651
54	0xbdd3d2a2	-0.103429094
55	0xbcf0a858	-0.029377148
56	0x3ca1fd3e	0.019774076
57	0xbd9c6adb	-0.076375686
58	0xbda66dae	-0.081263885
59	0xbd1947c8	-0.03742197
60	0x3c0006ca	0.007814119
61	0x3c96b8c3	0.018398648
62	0xbd1e43a0	-0.03863871
63	0x3d03a75d	0.032142032
64	0xbc5b09a7	-0.0133690005
65	0xbd69e1b6	-0.05710002
66	0xbc9298d4	-0.01789514
67	0xbc9bc9b3	-0.019017076
68	0xbc02089e	-0.007936625
69	0xbcc3174a	-0.023814816
70	0xbaba37cc	-0.0014207303
71	0x3dca5819	0.098800845
72	0xbd708d66	-0.058728598
73	0x3da62490	0.081124425
74	0xbd2a1a45	-0.04152896
75	0x3d92d120	0.07168794
76	0xbcdbe6c0	-0.026843429
77	0x3d39d869	0.0453724
78	0xbc2a462a	-0.010392705
79	0xbcb81d32	-0.022474859
80	0x3df73978	0.12071508
81	0xbd4cff29	-0.050048027
82	0xbc8ecee9	-0.017432647
83	0x3c609665	0.013707732
84	0xbc7dae98	-0.015483521
85	0x3cf3e801	0.029773714
86	0xbd737a08	-0.05944255
87	0xbd286044	-0.04110743
88	0x3d8e0da5	0.06936196
89	0xbb9c7105	-0.004774215
90	0xbb9c3f7f	-0.0047683115
91	0xbd9fdaf9	-0.078054376
92	0xbd8dc6de	-0.069226965
93	0x3d8a9e7c	0.0676851
94	0x3d7fa59b	0.062413793
95	0x3c5a9f55	0.013343652
96	0x3dde89d2	0.10866131
97	0xbc8670fa	-0.016411293
98	0xbd96446e	-0.07337271
99	0xbcc6df9b	-0.024276545
100	0x3d9d90f1	0.07693661
101	0x3d0a6652	0.033788987
102	0xbc802557	-0.015642805
103	0x3d2387f2	0.03992457
104	0x3da607de	0.08106969
105	0xbdda3b04	-0.106557876
106	0x3d00b34c	0.03142099
107	0x3d69bc3d	0.057064284
108	0xbdcafaf1	-0.099111445
109	0xbcfb4b84	-0.030675657
110	0xbcd2a4e5	-0.025713393
111	0xbda509f8	-0.08058542
112	0x3d8a930a	0.06766327
113	0xbd87e49a	-0.06635399
114	0xbda262e2	-0.07929017
115	0xbc32d62d	-0.010915321
116	0xbd9cce59	-0.07656545
117	0x3bc697e5	0.0060605877
118	0x3d884cb2	0.066552535
119	0x3d5f9779	0.054587815
120	0xbd827a45	-0.06370977
121	0x3c681f39	0.0141676
122	0xbdaf5351	-0.08560813
123	0xb9c7ffb5	-0.00038146754
124	0xbdd0bf90	-0.10192788
125	0xbc9e3d55	-0.019316355
126	0xbd658c42	-0.056041963
127	0xbd6691a6	-0.056291245

weight f4 [128, 48, 5]
0	0xbd2599fa	-0.040430047
1	0xbd93d799	-0.07218856
2	0x3d13374a	0.0359414
3	0x3dff080f	0.12452709
4	0xbd4d2854	-0.050087288
5	0x3e06c270	0.1316011
6	0x3c244d31	0.0100281695
7	0x3d28e512	0.041234083
8	0x3da42e8e	0.08016692
9	0x3db61f9c	0.08892748
10	0x3cab0dab	0.02088054
11	0xbd16c78b	-0.036811393
12	0x3d612bc7	0.05497339
13	0x3dd4083f	0.10353135
14	0x3dc106ee	0.0942515
15	0xbcde3199	-0.02712326
16	0x3de200ff	0.11035346
17	0x3d8b4952	0.06801094
18	0xbd1340ae	-0.035950355
19	0x3d14d742	0.0363381
20	0x3dcea8b9	0.10090775
21	0x3df25494	0.11832538
22	0x3b9bff5f	0.004760667
23	0xbd08026e	-0.033205442
24	0x3d6c9328	0.057757527
25	0x3ce515f0	0.027964562
26	0x3c59218d	0.013252628
27	0x3d34bd71	0.044125978
28	0xbd0e41d2	-0.03473074
29	0xbd8ad448	-0.06778771
30	0x3d3623ef	0.044467863
31	0x3dbe6812	0.092971936
32	0xbb704be6	-0.0036666333
33	0xbdeb96ec	-0.115033954
34	0xbdbcc542	-0.092173114
35	0xbd730754	-0.05933316
36	0xbd5635e9	-0.052297506
37	0x3d9f4060	0.077759504
38	0xbc2f3c83	-0.010695579
39	0x3d26c625	0.04071631
40	0xbc8b2eac	-0.016990028
41	0xbcc9002e	-0.024536218
42	0xbc56fa31	-0.013121174
43	0x3d881aff	0.06645774
44	0x3dacc048	0.08435112
45	0xbaaf9f12	-0.0013398847
46	0x3cc42f5f	0.02394837
47	0x3e018fa3	0.1265245
48	0x3df7d63e	0.1210141
49	0x3e031bd1	0.1280358
50	0xbc997e5a	-0.018737007
51	0xbc3c9867	-0.011510945
52	0xbcf0e01e	-0.029403742
53	0xbd4b632e	-0.049655132
54	0x3de31ae1	0.11089111
55	0xbd63df2b	-0.05563275
56	0x3d0d3eba	0.03448365
57	0xbd984ea1	-0.07436872
58	0x3cf236d6	0.029567163
59	0x3dc0d8fe	0.09416388
60	0x3dc8ed7a	0.0981092
61	0xbc6deff8	-0.014522545
62	0xbadea538	-0.0016986495
63	0xbdca6a27	-0.09883528
64	0x3c9a0b64	0.01880426
65	0x3ccbb4f0	0.024866551
66	0x3cb6ac99	0.022299098
67	0x3dce6bf1	0.10079182
68	0xbd00b55c	-0.031422958
69	0x3c98f3a8	0.018670872
70	0xbc514701	-0.012773276
71	0xbbc1c196	-0.00591297
72	0x3d02f471	0.0319714
73	0x3d940e75	0.0722932
74	0x3d3725a4	0.04471363
75	0xbda127ce	-0.0786892
76	0x3d2d64d8	0.0423325
77	0xbd1d6bc3	-0.038432848
78	0x3d87c454	0.066292435
79	0x3ca23593	0.019800937
80	0x3ccace14	0.024756469
81	0xbd328f28	-0.043593556
82	0xbda6011a	-0.08105679
83	0xbd7ae250	-0.061250985
84	0xbd3bd4ba	-0.04585717
85	0xbbb7e0da	-0.005611521
86	0xbc9fc3ed	-0.019502604
87	0xbd5624f2	-0.052281328
88	0xbd9cd81d	-0.07658408
89	0xbce038ad	-0.027370775
90	0x3c7a563a	0.015279347
91	0x3c6e31ef	0.014538272
92	0xbd0303ec	-0.031986162
93	0x3df9d105	0.121980704
94	0xbdd83464	-0.10556868
95	0xbd55e3a1	-0.052219037
96	0x3c853056	0.0162584
97	0xbcddb7e2	-0.027065221
98	0xbdac37ee	-0.08409105
99	0xbdabca4e	-0.08388196
100	0xbc7a6a3b	-0.015284116
101	0x3cb891bb	0.022530427
102	0xbd0f7250	-0.035021126
103	0x3cfdef14	0.03099779
104	0x3cb6fcf0	0.022337407
105	0x3d8543cc	0.06507072
106	0x3d5da191	0.05410916
107	0x3cd543f4	0.02603338
108	0x3dab0991	0.08351434
109	0xbd30c9ca	-0.04316119
110	0xbd3d3fc7	-0.0462034
111	0xbc137a2a	-0.009001294
112	0xbc9c5810	-0.01908496
113	0xbcc8e4b7	-0.024523122
114	0xbd53c88b	-0.051704925
115	0xbd0ec7b8	-0.034858435
116	0xbd10aad8	-0.03531918
117	0x3ce7530e	0.028237846
118	0xbd8ff032	-0.070282355
119	0x3e0bb3d4	0.13642818
120	0x3cf86135	0.03031979
121	0x3d65b572	0.056081243
122	0x3d62bf73	0.05535836
123	0xbde1d29c	-0.11026499
124	0xbd4b698b	-0.0496612
125	0xbd9a077d	-0.075209595
126	0xbd9ea04e	-0.077454194
127	0x3cc8e880	0.024524927
128	0xbc22f6d9	-0.009946548
129	0xbd9d74c4	-0.07688287
130	0xbce7a997	-0.028279109
131	0x3cc3d761	0.023906412
132	0xbd431c1e	-0.047634237
133	0x3d3599b2	0.04433603
134	0x3e101811	0.1407168
135	0xbceb2026	-0.028701853
136	0x3bb72686	0.005589309
137	0xba34d48c	-0.0006898127
138	0xbd5bbbef	-0.053646024
139	0x3da159a9	0.078784294
140	0x3c017d61	0.007903428
141	0x3d28cf3e	0.041213267
142	0x3c2695bb	0.010167534
143	0xbda6c40a	-0.0814286
144	0xbd808358	-0.06275052
145	0xbd92c801	-0.07167054
146	0x3b9f8c04	0.004868986
147	0x3aa2259a	0.0012370825
148	0x3d69c982	0.05707694
149	0xbd000859	-0.03125796
150	0x3cc733a5	0.024316618
151	0xbdb27b64	-0.08714941
152	0x3d2f5b70	0.04281181
153	0x3db987b0	0.090590835
154	0xbcad9a4f	-0.021191744
155	0x3d4f2eba	0.05058167
156	0xbdd0416b	-0.101687275
157	0x3daa69e0	0.08320975
158	0x3d88f2d0	0.06686938
159	0x3dc53539	0.09629292
160	0xbd8c1ca6	-0.06841402
161	0xbc50edef	-0.01275204
162	0xbd755d71	-0.059903566
163	0xbc93ddd4	-0.018050112
164	0xbc3167f5	-0.010828008
165	0xbd2aa1eb	-0.041658323
166	0xbdf4adff	-0.119472496
167	0x3db4e821	0.088333376
168	0xbca3e309	-0.02000572
169	0x3de2e9fc	0.11079785
170	0x3cfb7399	0.03069477
171	0x3be2e3ac	0.0069241133
172	0x3d692b9f	0.056926366
173	0x3d5fd078	0.05464217
174	0xbcd0a4e0	-0.025469244
175	0x3d72da58	0.05929026
176	0xbd436d46	-0.047711633
177	0x3c00e03b	0.007865961
178	0xbd9e886e	-0.07740866
179	0x3cb34e53	0.021887934
180	0x3d55170c	0.052023932
181	0x3d8c6a37	0.068561964
182	0x3d85cf39	0.06533665
183	0x3d4e0431	0.050296966
184	0x3d54dd97	0.051969137
185	0x3dca7808	0.098861754
186	0x3e0cb0e3	0.13739352
187	0x3d38f5af	0.045156177
188	0xbd884406	-0.066535994
189	0xbd0ea2a7	-0.034823086
190	0x3be1a74b	0.006886398
191	0xbb7ae732	-0.0038284776
192	0xbca56426	-0.020189356
193	0xbd27c788	-0.040961772
194	0x3db50ac3	0.08839943
195	0xb9becace	-0.00036390725
196	0x3d049bdd	0.032375205
197	0x3d0055bd	0.031331766
198	0x3dd0c77b	0.10194298
199	0xbd11f74b	-0.035636228
200	0x3c2d3d49	0.010573694
201	0x3d82a11a	0.06378384
202	0x3bbd1a0d	0.0057709278
203	0x3d275cd7	0.040860023
204	0x3df7e603	0.12104418
205	0xbcc74456	-0.024324577
206	0xbdb43cd3	-0.08800664
207	0x3c0e46aa	0.00868384
208	0xbc9ab63b	-0.018885722
209	0xbcf3eaf7	-0.029775126
210	0x3c2bb548	0.010480233
211	0xbd0b1e25	-0.033964295
212	0xbda2d35f	-0.07950472
213	0xbd9a0ce2	-0.075219885
214	0xbd9570ae	-0.072968826
215	0x3cd5e6db	0.026111057
216	0x3c8f73b7	0.017511232
217	0x3cb186d2	0.021670733
218	0xbdc79751	-0.09745658
219	0x3dd0f7fd	0.1020355
220	0x3cfa771c	0.030574374
221	0x3d220b82	0.039561756
222	0xbd5636c6	-0.05229833
223	0xbc7b1ea7	-0.015327132
224	0xbbba844c	-0.0056920405
225	0x3d7aa0f1	0.061188642
226	0x3d81d254	0.06338945
227	0xbd27d27a	-0.04097221
228	0xbccc87c0	-0.024967074
229	0x3bc1f2c1	0.005918831
230	0xbd3959be	-0.0452516
231	0x3be6b6e7	0.0070408466
232	0x3c575dde	0.013144938
233	0xbd8c123d	-0.06839416
234	0xbd5c7963	-0.0538267
235	0xbd1dd1be	-0.038530104
236	0x3cd556ea	0.02604242
237	0x3c236002	0.0099716205
238	0xbbb356ea	-0.0054730074
239	0x3c9db27d	0.019250149
240	0xbd0d985c	-0.03456913
241	0xbc3f9b9f	-0.011694818
242	0xbc05adfd	-0.008159158
243	0xbcd06886	-0.025440466
244	0x3ce47b1b	0.027890733
245	0x3dba2f28	0.090910256
246	0x3dddd4fe	0.10831641
247	0x3da4ba22	0.080433145
248	0x3d2a79b2	0.041619964
249	0x3d42e189	0.04757837
250	0x3d96570c	0.073408216
251	0x3cf22057	0.029556436
252	0xbb01f0c7	-0.0019827352
253	0x3c903463	0.017603105
254	0x3bf83ac9	0.007575367
255	0xbcb26bdf	-0.021779953

bias f4 [128]
0	0xbd9aaed4	-0.07552877
1	0xbcf74329	-0.030183392
2	0xbce4ac3c	-0.027914159
3	0x3db0f02f	0.086395614
4	0xbcfecd62	-0.031103794
5	0xbc89d85c	-0.016826801
6	0x3da2be30	0.07946432
7	0xbb3dd5bd	-0.002896651
8	0x3b0f7865	0.002189183
9	0xbdac4680	-0.08411884
10	0xbc0a9aa3	-0.00845972
11	0xbd197a85	-0.03747036
12	0x3db32ff5	0.087493815
13	0xbdac9f68	-0.08428842
14	0xbc926b47	-0.01787342
15	0xbc0e4b7a	-0.008684987
16	0xbd813242	-0.06308414
17	0x3d756364	0.05990924
18	0xbcc623ba	-0.024186958
19	0xbd823603	-0.06357958
20	0xbc7d9dfa	-0.015479559
21	0xbd1af28f	-0.03782898
22	0xbd302ac7	-0.043009546
23	0x3da30558	0.079600036
24	0xbd793e1b	-0.060850244
25	0xbdb0128b	-0.08597287
26	0xbcb35003	-0.021888738
27	0x3c002b09	0.00782276
28	0xbd3c6d7e	-0.046002857
29	0xbd4c2e43	-0.049848806
30	0x3da699a0	0.081347704
31	0xbd280003	-0.041015636
32	0xbc8d3e55	-0.017241636
33	0x3d903e5d	0.07043145
34	0xbd98032e	-0.074224815
35	0x3bc55548	0.006022129
36	0xbd9e232d	-0.07721553
37	0x3d9575c3	0.07297852
38	0xbcb963e6	-0.022630643
39	0xbcfefed0	-0.031127363
40	0xbd97342c	-0.07382998
41	0x3d484268	0.048891455
42	0x3cc4277a	0.023944605
43	0x3d9c974b	0.07646044
44	0xbcc86906	-0.024464142
45	0xbc8d8e45	-0.017279753
46	0xbc9f407d	-0.01943993
47	0xbbf74702	-0.0075463066
48	0x3bac5e5a	0.005260271
49	0xbcfc7771	-0.030818673
50	0x3d9f1b1e	0.07768844
51	0xbd5c74af	-0.053822216
52	0x3d76383e	0.06011223
53	0x3d253da2	0.04034198
54	0xbd2d8a77	-0.04236838
55	0x3d0fdc82	0.035122402
56	0x3d5258f0	0.05135435
57	0xbc38ced4	-0.01127978
58	0xbd38eaaa	-0.045145668
59	0xbd8fbdd5	-0.070186295
60	0xbcb55508	-0.022135273
61	0x3b0350c3	0.0020037151
62	0xbd6f94d2	-0.058491535
63	0xbc316ab5	-0.010828664
64	0xbcc7250e	-0.024309661
65	0xbda55065	-0.08071975
66	0xbc9266aa	-0.01787122
67	0x3d9e6392	0.07733835
68	0x3c97f4c0	0.018549323
69	0x3d56ffb0	0.052489936
70	0x3b63b5e7	0.0034745873
71	0xbd72735c	-0.059192047
72	0x3dc39429	0.09549744
73	0x3d86cb0c	0.06581697
74	0x3d75f069	0.060043726
75	0x3d8a8880	0.067643166
76	0xbcdc7da7	-0.026915384
77	0xbd164220	-0.036684155
78	0x3b42d4d5	0.0029728909
79	0xbd10f629	-0.035391007
80	0xbd2920f5	-0.041291196
81	0xbd44b4de	-0.04802405
82	0x3d450f47	0.048110273
83	0xbd4f90dc	-0.050675258
84	0xbd9fed40	-0.07808924
85	0xbd758b59	-0.059947345
86	0xbca5b7b0	-0.02022919
87	0xbd031461	-0.032001857
88	0x3d5991b1	0.053117458
89	0xbd9b0935	-0.075701155
90	0x3d2bbd98	0.041928858
91	0xbdacbfee	-0.08435045
92	0x3ce0e6b6	0.027453762
93	0xbc3968cb	-0.0113164885
94	0xbd29880a	-0.041389503
95	0x3daee418	0.08539599
96	0xbd8d65c4	-0.06904176
97	0xbd73aca9	-0.059490833
98	0xbd6ddbbe	-0.05807089
99	0xbd59815c	-0.053101882
100	0xbdb3b498	-0.0877468
101	0xbd241c3b	-0.040065985
102	0x3d90c5a9	0.07068951
103	0xbc3bfa6c	-0.011473279
104	0x3d3a3ddb	0.045469146
105	0xbd08fdb0	-0.03344506
106	0x3da9262e	0.08259235
107	0xbd85c62e	-0.065319404
108	0xbb92fbe6	-0.004485595
109	0xbdb83a7f	-0.08995532
110	0x3c5de2af	0.013542815
111	0xbcd96c9d	-0.026541049
112	0xbc259ee8	-0.010108687
113	0xbcb75ef5	-0.022384146
114	0x3b9de448	0.004818473
115	0xbd67849e	-0.056522958
116	0xbcb45541	-0.022013308
117	0xbd0378fd	-0.032097805
118	0x3cb03062	0.021507446
119	0xbd830ac9	-0.063985415
120	0x3cba75ca	0.022761244
121	0xbc417693	-0.011808055
122	0xbcf93e2c	-0.030425154
123	0x3d4e7dd4	0.050412968
124	0xbd97f131	-0.074190505
125	0xbd76ec96	-0.06028422
126	0xbc88b6fe	-0.01668882
127	0x3da9bc1b	0.082878314
